weights/names.pt (torch, 16570 bytes, 5 tensors)

embedding.weight f4 [27, 2]
-0.14668141 -0.048453167 -1.1968025 -1.4144838 -0.67327935 -0.4497484 -0.80551577 -0.43621674
-1.0576317 -0.5453267 -1.3075795 -1.5565205 -1.6228453 -1.0346894 -0.9575874 -0.69709575
-2.3061018 -1.8099068 -1.2417407 -1.3167448 -1.3500663 -0.6390836 -0.98370945 -0.52680945
-2.2264893 -1.308577 -0.99064064 -0.31183305 -1.5032965 -1.2006845 -1.0899403 -1.4336691
-0.67923373 -0.34863296 -2.8312337 -1.576955 -1.5271559 -0.8955293 -0.8762226 -0.5898736
-0.86740476 -0.5271354 -0.90822285 -1.1796577 -1.3931272 -0.33606753 -1.2592211 -0.85201037
-2.2056987 -1.6212878 -2.004668 -1.9646307 -1.1605971 -0.5544424
00000000: a733 16be d476 46bd d330 99bf ce0d b5bf
00000010: 095c 2cbf 6c45 e6be 4836 4ebf cd57 dfbe
00000020: 7a60 87bf 889a 0bbf c45e a7bf 103c c7bf
00000030: 65b9 cfbf b470 84bf 7324 75bf de74 32bf
00000040: 2c97 13c0 07ab e7bf 5cf1 9ebf 188b a8bf
00000050: f9ce acbf fc9a 23bf 62d4 7bbf fcdc 06bf
00000060: cd7e 0ec0 737f a7bf a09a 7dbf 95a8 9fbe
00000070: 056c c0bf 08b0 99bf 2a83 8bbf 7882 b7bf
00000080: 43e2 2dbf 0580 b2be ef32 35c0 a9d9 c9bf
00000090: d879 c3bf 6941 65bf 2050 60bf f501 17bf
000000a0: 3d0e 5ebf 58f2 06bf 4b81 68bf 06ff 96bf
000000b0: fe51 b2bf 0b11 acbe 282e a1bf 5a1d 5abf
000000c0: 2b2a 0dc0 5c86 cfbf 7b4c 00c0 0579 fbbf
000000d0: 728e 94bf f0ef 0dbf

model.0.weight f4 [100, 6]
-0.39395103 -1.6027461 -2.105657 0.22147416 -1.029237 -1.205628 -0.2008601 -0.64329225
0.6734749 -1.1000264 -1.4416085 -2.100658 -2.217763 -1.2070835 0.7298933 -0.83557016
-2.2216153 -2.066936 -1.3967142 -2.5924215 -0.30418313 -2.9658012 -2.1612265 -1.2845689
-0.5365919 0.9720139 -1.054282 -1.286248 0.08729921 -0.73132193 -0.40368423 -0.7335748
-1.2929834 -0.7546649 0.32672057 -0.32140902 -0.38814238 -1.6594086 -2.3461275 -0.4551945
-1.1222413 -0.65368927 0.2632441 -0.19721016 -0.39280716 0.8618619 -1.46259 1.5494533
-1.078041 -0.87823856 -2.5571554 -0.6516115 -1.4644256 0.109744154 1.0410502 -0.64347494
-1.8491467 -1.6355789 -0.50436497 0.39402792 0.57191116 -1.4531496 -0.93342245 -0.3330316
-1.3324342 -1.0291581 -2.3914554 -1.855866 -1.066592 -0.3328033 -2.5853615 -0.5661034
0.34785357 -0.23943095 -2.6358244 0.18525974 -2.0124383 -2.4311306 -2.3150003 -1.4344245
-0.95012283 -1.1254954 -0.82946473 -1.8931828 -2.4266574 0.9689066 -1.1208 -1.8656961
-0.35492396 -2.0020328 -0.74057996 -1.7454846 -2.7626889 -1.6203007 -0.7435092 -0.43281022
-1.2163237 -2.1863923 -0.8333091 -0.5765715 -1.6257286 -2.7304788 -2.763368 -1.2857606
0.2698407 -2.1279638 -0.4464021 -1.3673323 -2.8241663 -0.013939843 -1.6772084 -1.9530411
-0.6115392 -0.3331335 -2.0008104 -2.2464752 1.599299 -0.91968787 -1.4497746 0.8841366
0.6566945 -0.9292236 -1.0740796 -0.7082551 -2.5047665 -0.6429377 -0.9787711 -1.2287114
0.33999625 -0.51887226 -1.1134832 -0.8868798 -0.8478863 0.6238552 -0.6488372 -2.7699623
-1.2620578 0.256208 -0.20396835 -1.3434639 0.7654475 -0.3024891 -0.034990016 -1.5487671
-0.9135011 0.041773263 -2.050859 -0.9281688 -2.6496232 -0.41347668 -1.4471916 -0.8932161
-2.2348802 0.20807758 -0.12671512 -0.391218 -1.6667355 -1.5486864 -1.2768035 -0.058024045
0.21835972 0.14571998 -0.68044835 -1.0484413 -2.613179 -1.1478698 -2.6778066 -3.129684
-0.96405745 -0.79102176 0.13949801 -2.2416382 -2.3328485 -2.9691653 -1.3091844 -0.4577154
-1.1356676 -1.787642 -0.4754432 0.5524016 -0.77868885 -2.242767 -0.49323142 -1.1492372
0.39387923 -0.028281212 0.048497014 -0.14152841 0.68658835 -0.7967962 0.71728987 -1.5065831
-0.73078805 -0.68277717 -3.4819112 -0.98528445 -2.3712854 0.46565095 -0.7422734 -1.3317293
-0.5570366 -1.1419 -1.3083386 -0.096185215 -0.83426255 -1.0823797 -0.44693917 -1.3074867
-0.67212117 -0.52417815 -1.1676341 0.66492903 -1.4654831 -0.1555697 -0.29011723 -0.31290606
-0.28939626 -2.04217 -1.6964418 -1.102027 -0.725909 -0.7567501 -2.000988 -2.0681527
-1.312104 -0.40910956 -0.85713536 0.038964752 0.08196749 0.11644172 -1.0449542 -1.4135187
-1.976087 0.059343424 -1.0829692 -0.19850068 -0.96122926 0.43121374 -0.5432693 0.16887206
-1.2821609 0.7599379 -0.03174668 -2.0141413 -1.8097508 -1.0132865 -0.4850604 -0.95859206
-0.2017203 -1.4293406 -2.5898612 -1.8637714 -0.2853018 0.08798205 -0.45259938 -3.420593
00000000: f3b3 c9be c926 cdbf 16c3 06c0 1fca 623e
00000010: 0abe 83bf 0552 9abf 45ae 4dbe cdae 24bf
00000020: da68 2c3f aacd 8cbf a186 b8bf 2e71 06c0
00000030: d4ef 0dc0 b681 9abf 4ada 3a3f ede7 55bf
00000040: f22e 0ec0 ae48 04c0 88c7 b2bf 3cea 25c0
00000050: e4bd 9bbe b0cf 3dc0 8951 0ac0 c16c a4bf
00000060: 165e 09bf e7d5 783f b6f2 86bf c6a3 a4bf
00000070: eec9 b23d ea37 3bbf b3af cebe 8fcb 3bbf
00000080: 7b80 a5bf b831 41bf eb47 a73e b98f a4be
00000090: 99ba c6be 8067 d4bf f426 16c0 410f e9be
000000a0: 9aa5 8fbf 2e58 27bf eec7 863e 76f1 49be
000000b0: 051e c9be fba2 5c3f 2636 bbbf 7c54 c63f
000000c0: 3ffd 89bf 3ed4 60bf 6fa8 23c0 03d0 26bf
000000d0: 4c72 bbbf 8bc1 e03d 2241 853f c6ba 24bf
000000e0: d7b0 ecbf a65a d1bf 101e 01bf 07be c93e
000000f0: c568 123f ce00 babf c6f4 6ebf 1e83 aabe
00000100: 348d aabf 74bb 83bf 9b0d 19c0 048d edbf
00000110: 1686 88bf 3265 aabe 9076 25c0 27ec 10bf
00000120: dd19 b23e 632d 75be 59b1 28c0 bbb4 3d3e
00000130: cacb 00c0 a597 1bc0 f728 14c0 399b b7bf
00000140: 403b 73bf 3c10 90bf cd57 54bf d053 f2bf
00000150: 5b4e 1bc0 430a 783f 6076 8fbf 21cf eebf
00000160: 98b8 b5be 4e21 00c0 a696 3dbf 0a6c dfbf
00000170: e5cf 30c0 0366 cfbf 9e56 3ebf 4d99 ddbe
00000180: 7fb0 9bbf daed 0bc0 bf53 55bf 319a 13bf
00000190: e017 d0bf 2ac0 2ec0 05db 30c0 ce93 a4bf
000001a0: 8f28 8a3e 8f30 08c0 d18e e4be bf04 afbf
000001b0: 24bf 34c0 f063 64bc c4ae d6bf 40fd f9bf
000001c0: d58d 1cbf 7990 aabe 470d 00c0 40c6 0fc0
000001d0: d4b5 cc3f aa70 6bbf 3792 b9bf c756 623f
000001e0: 211d 283f 99e1 6dbf 717b 89bf 3550 35bf
000001f0: 184e 20c0 9197 24bf be90 7abf 6a46 9dbf
00000200: fd13 ae3e d0d4 04bf 9e86 8ebf 8e0a 63bf
00000210: 140f 59bf f9b4 1f3f 321a 26bf 1047 31c0
00000220: 1c8b a1bf b22d 833e 14dd 50be a0f6 abbf
00000230: 5ef4 433f dadf 9abe b151 0fbd 003e c6bf
00000240: 35db 69bf 711a 2b3d 4641 03c0 789c 6dbf
00000250: 6d93 29c0 37b3 d3be 933d b9bf cfa9 64bf
00000260: 4708 0fc0 4a12 553e 9cc1 01be ba4d c8be
00000270: 9757 d5bf 5b3b c6bf 4c6e a3bf 9faa 6dbd
00000280: b199 5f3e 9e37 153e dd31 2ebf 5333 86bf
00000290: 533e 27c0 66ed 92bf 2f61 2bc0 be4c 48c0
000002a0: 78cc 76bf 6780 4abf 91d8 0e3e 0077 0fc0
000002b0: 644d 15c0 ce06 3ec0 5b93 a7bf ac59 eabe
000002c0: 8e5d 91bf 74d1 e4bf 4b6d f3be 316a 0d3f
000002d0: 2758 47bf 7f89 0fc0 d488 fcbe 341a 93bf
000002e0: 8aaa c93e 00ae e7bc cea4 463d d3ec 10be
000002f0: 41c4 2f3f d6fa 4bbf 4fa0 373f b7d7 c0bf
00000300: ed14 3bbf 7cca 2ebf a2d7 5ec0 9a3b 7cbf
00000310: 24c3 17c0 cd69 ee3e a105 3ebf 1b76 aabf
00000320: f399 0ebf c729 92bf a477 a7bf c1fc c4bd
00000330: 3b92 55bf 6b8b 8abf 36d5 e4be b95b a7bf
00000340: 2210 2cbf 8a30 06bf 0975 95bf ca38 2a3f
00000350: f394 bbbf aa4d 1fbe 3f8a 94be 3935 a0be
00000360: bf2b 94be eab2 02c0 0125 d9bf 390f 8dbf
00000370: 2cd5 39bf 60ba 41bf 3010 00c0 9d5c 04c0
00000380: 06f3 a7bf cf76 d1be 396d 5bbf 8199 1f3d
00000390: 92de a73d ff78 ee3d 0fc1 85bf 2eee b4bf
000003a0: 6bf0 fcbf 1712 733d bc9e 8abf c343 4bbe
000003b0: 1f13 76bf 0cc8 dc3e b213 0bbf ccec 2c3e
000003c0: d91d a4bf 4a8b 423f cf08 02bd b1e7 00c0
000003d0: eaa5 e7bf 5fb3 81bf d659 f8be 4a66 75bf
000003e0: c48f 4ebe a2f4 b6bf 49c0 25c0 1090 eebf
000003f0: 1413 92be ef2f b43d 1bbb e7be ffea 5ac0

model.0.bias f4 [100]
0.30337796 0.22125381 -0.007684677 0.32411316 -0.05270985 0.18818377 -0.18849432 -0.16530275
-0.16413818 0.3676181 0.1276853 0.29955667 0.31419057 -0.11593758 0.17711264 0.34335858
-0.15965271 0.43055493 -0.20892318 -1.0869975 0.1501607 0.40910867 0.25360504 0.17070891
-0.15976351 0.3689617 0.23285966 -0.20186481 0.051822785 0.7170396 0.6168324 -0.9449315
0.05269254 -0.45627004 0.52086437 0.61178416 0.24422094 -0.38493437 0.44165668 0.19370358
0.07502574 0.04308708 0.18681625 -0.84739166 0.21047586 0.20230398 -0.3101244 0.1173619
-0.035166178 -0.15407076 0.10593214 -0.14970809 0.060668662 0.1952195 0.3920166 -0.010444368
0.016981186 -0.39502758 -0.20460284 0.33981282 0.26879814 0.18755758 0.2398297 -0.04849401
-0.08799732 0.63264567 -0.6034617 0.3473818 -0.058639128 -0.42466018 0.23062962 -0.4237245
-0.22870123 0.30421194 -0.20123948 0.17932287 0.12894343 -0.08789263 -0.16226174 -0.094887145
-0.2478172 -0.030370144 -0.34698176 0.23260947 0.11572443 0.23780593 0.30639085 0.18270889
-0.16145189 0.3469883 0.18647134 0.30967894 -0.05416345 -0.7912025 0.036298364 0.054003976
0.016908815 0.31859982 0.19567971 -0.446648
00000000: 5b54 9b3e 5c90 623e becf fbbb 29f2 a53e
00000010: 49e6 57bd 3fb3 403e a804 41be 2045 29be
00000020: d713 28be 7138 bc3e efbf 023e 7e5f 993e
00000030: 96dd a03e af70 edbd 045d 353e b2cc af3e
00000040: 007c 23be b271 dc3e f5ef 55be bc22 8bbf
00000050: bac3 193e b176 d13e 85d8 813e 51ce 2e3e
00000060: 0c99 23be 8ce8 bc3e c372 6e3e a6b5 4ebe
00000070: 2144 543d e88f 373f bae8 1d3f 08e7 71bf
00000080: 22d4 573d 3a9c e9be 5e57 053f e39d 1c3f
00000090: 0e15 7a3e 1e16 c5be d320 e23e 3b5a 463e
000000a0: 18a7 993d 147c 303d c24c 3f3e a9ee 58bf
000000b0: fc86 573e c628 4f3e a0c8 9ebe 705b f03d
000000c0: 690a 10bd bac4 1dbe f3f2 d83d 144d 19be
000000d0: b47f 783d 9fe7 473e 66b6 c83e db1e 2bbc
000000e0: 211c 8b3c 0e41 cabe 6883 51be f2fb ad3e
000000f0: e99f 893e 180f 403e eb95 753e a8a1 46bd
00000100: f037 b4bd 11f5 213f 777c 1abf 07dc b13e
00000110: 952f 70bd 0f6d d9be 2c2a 6c3e 6bf2 d8be
00000120: a830 6abe abc1 9b3e b911 4ebe 6aa0 373e
00000130: bf09 043e 0d01 b4bd f127 26be 3154 c2bd
00000140: cbc3 7dbe cfca f8bc 98a7 b1be 2d31 6e3e
00000150: ee00 ed3d 6683 733e 43df 9c3e 0a18 3b3e
00000160: a553 25be 73a8 b13e 58f2 3e3e 3d8e 9e3e
00000170: 7eda 5dbd 3f8c 4abf 98ad 143d 4633 5d3d
00000180: 5b84 8a3c 841f a33e 4360 483e 0caf e4be

model.2.weight f4 [27, 100]
-1.2078502 0.05503641 0.1267828 -1.0414765 -1.3409379 0.17701626 -0.18223464 -1.2721748
0.025973966 -1.0002719 -1.6977724 -1.9414814 0.8159502 -1.1484708 -0.9072034 0.25872734
0.1321411 -3.2098625 0.41557604 1.1678923 -1.4895287 -1.3818846 -1.5845706 -2.2448564
-1.0517372 0.99038994 -0.022495495 -0.38592938 -0.3365831 -2.6919267 -1.2690084 0.029870441
-0.9848813 -1.1793433 -1.6840036 -1.2178273 0.24672565 -0.1558304 -0.19422345 -1.2687166
-0.7261543 -1.9366412 -0.32554144 0.0644311 -0.4617471 -0.86211336 -0.556253 1.3465323
-0.47670695 -0.7570897 -2.0418694 -0.24889654 -1.131994 -1.37257 -1.3622366 -0.4207912
-1.5404686 -1.1339365 -0.9681157 -0.7856301 -1.688156 -0.611939 -1.3084562 -1.8954139
-2.1842606 -2.0525994 0.3748194 -1.1216438 -1.4003191 -0.8093514 -3.1692421 -0.7565758
-1.9691328 -0.87825435 -3.3340855 -1.2870476 -1.5613967 -0.4184812 0.002037278 -1.5199382
-0.40610328 -1.0058286 -0.6420698 -0.29996023 -2.557481 -1.1957531 -0.6233432 -2.1957362
-1.8689971 0.4059796 -1.4893126 -1.2356142 -2.2082312 0.69455177 -1.3769974 -1.6045855
-2.5881464 -1.6706316 0.45169273 -0.017714059 -2.6368985 -0.15585501 0.53426623 0.30969718
-0.9852642 -0.68978536 -0.49261504 0.83775824 0.47162846 -2.2584906 1.4604704 1.1334714
-2.3910594 -1.7384458 -0.37493256 0.59213895 -0.19082873 -0.35480008 -0.38211522 -0.52747256
-1.185364 0.15501665 -0.08820147 -2.434184 -1.548187 -0.5982551 -1.6761779 -2.335142
1.303639 1.1166632 -2.4930966 -0.8598447 -1.2875981 0.47278243 -0.61096483 -1.0792964
-0.10340179 -2.046498 -2.9850025 -1.6860117 -0.6247111 -1.5186012 -0.84214336 1.0522052
-0.30896172 -1.3858168 -2.3749733 -0.8258067 -1.2036531 -1.0543073 -0.21895541 0.2789114
-1.8210416 -0.77809954 -0.7022981 -0.8845583 0.73531616 -2.1803887 -0.4737125 -0.91026247
-0.5105514 -0.9334984 -1.2421514 -1.2355014 -2.2529154 -1.5177552 -0.96389335 -1.0542697
-2.6080942 -0.9314639 -1.6235999 -2.387167 -1.4937177 -0.6832306 -1.8438051 -0.49017122
-0.68970615 -0.84285474 -0.9297709 -0.82479703 -3.1121542 -2.6758575 -1.3376155 -0.65313584
-1.5432069 -0.85565245 -1.28284 -1.4183826 0.3930886 -0.32698953 -2.0073426 -0.4327637
-0.60937566 -1.0280474 -0.8065646 -1.6069845 -0.42852592 -1.7510301 -1.0246005 -1.4948567
0.1133485 -1.5542495 -1.0952873 -1.7521771 -0.30384883 -0.98015445 -0.07205101 -1.6019957
-0.8465919 -0.40957344 -0.27698025 -1.7618481 -0.1997095 -1.8914142 -0.2219543 -1.5134703
-2.0745027 1.4462446 0.12511837 -1.1292745 0.29903856 0.049337856 0.84427243 -1.3424828
0.034070306 -1.8337666 -2.0317643 -1.3793141 -1.5702242 -0.7568556 -4.1228013 -1.0489542
-0.049697936 -1.488812 -2.2987437 -1.1926156 0.433663 -0.54608077 -1.5280826 -0.06450689
-1.5444974 -0.39994827 -1.7813002 -0.97419876 -1.2979558 -1.6718382 -0.97929406 -0.5417082
-1.4716467 -1.6255121 -0.74331105 -1.3203121 -1.8122954 0.3447789 -2.229245 -1.9568781
00000000: d69a 9abf dc6d 613d 5ad3 013e 1a4f 85bf
00000010: daa3 abbf c043 353e b89b 3abe a0d6 a2bf
00000020: 5bc7 d43c e908 80bf 9b50 d9bf 7682 f8bf
00000030: 1de2 503f 1701 93bf 7b3e 68bf e977 843e
00000040: ff4f 073e 636e 4dc0 62c6 d43e 7f7d 953f
00000050: e0a8 bebf 98e1 b0bf 36d3 cabf baab 0fc0
00000060: 539f 86bf 328a 7d3f 7948 b8bc 8998 c5be
00000070: 9f54 acbe 8748 2cc0 de6e a2bf dbb2 f43c
00000080: 2e21 7cbf b9f4 96bf 6e8d d7bf c4e1 9bbf
00000090: a6a5 7c3e 0192 1fbe 83e2 46be 4e65 a2bf
000000a0: 40e5 39bf dce3 f7bf 5ead a6be 74f4 833d
000000b0: 1e6a ecbe 76b3 5cbf 9966 0ebf 2c5b ac3f
000000c0: ef12 f4be a1d0 41bf fdad 02c0 bcde 7ebe
000000d0: 2ee5 90bf 60b0 afbf c55d aebf f271 d7be
000000e0: 132e c5bf d524 91bf 6ed6 77bf 0e1f 49bf
000000f0: 7f15 d8bf 09a8 1cbf 7e7b a7bf ec9c f2bf
00000100: edca 0bc0 ca5d 03c0 54e8 bf3e 0692 8fbf
00000110: a83d b3bf a731 4fbf ddd4 4ac0 f4ae 41bf
00000120: 8b0c fcbf 47d5 60bf a861 55c0 fabd a4bf
00000130: d9db c7bf 2b43 d6be da83 053b 568d c2bf
00000140: c5ec cfbe febe 80bf b05e 24bf 6394 99be
00000150: c5ad 23c0 700e 99bf 6c93 1fbf f186 0cc0
00000160: 4c3b efbf 8fdc cf3e cca1 bebf 9b28 9ebf
00000170: a953 0dc0 25ce 313f 7341 b0bf 0f63 cdbf
00000180: 31a4 25c0 42d7 d5bf 4544 e73e 131d 91bc
00000190: f2c2 28c0 7598 1fbe acc5 083f a190 9e3e
000001a0: 463a 7cbf c695 30bf 0a38 fcbe 5377 563f
000001b0: 4979 f13e 1c8b 10c0 b2f0 ba3f 9715 913f
000001c0: 1e07 19c0 6485 debf 29f7 bfbe 6b96 173f
000001d0: 9b68 43be 5ba8 b5be 9ba4 c3be 7108 07bf
000001e0: 02ba 97bf afbc 1e3e f9a2 b4bd acc9 1bc0
000001f0: fe2a c6bf 3f27 19bf ff8c d6bf f772 15c0
00000200: a5dd a63f d2ee 8e3f e58e 1fc0 c81e 5cbf
00000210: 04d0 a4bf 8a10 f23e 3168 1cbf 6226 8abf
00000220: 51c4 d3bd d3f9 02c0 480a 3fc0 3bcf d7bf
00000230: 11ed 1fbf 8661 c2bf b596 57bf a9ae 863f
00000240: 3b30 9ebe 7262 b1bf 90ff 17c0 1168 53bf
00000250: 4e11 9abf 8bf3 86bf d935 60be 7acd 8e3e
00000260: e417 e9bf 8831 47bf cfc9 33bf 6a72 62bf
00000270: ae3d 3c3f 7d8b 0bc0 728a f2be f606 69bf
00000280: 7fb3 02bf c0f9 6ebf d1fe 9ebf e924 9ebf
00000290: c42f 10c0 cd45 c2bf b7c1 76bf 4ff2 86bf
000002a0: 04eb 26c0 6b74 6ebf 1fd2 cfbf 58c7 18c0
000002b0: 2432 bfbf 33e8 2ebf ce01 ecbf b9f7 fabe
000002c0: 9590 30bf 54c5 57bf 7705 6ebf e625 53bf
000002d0: 892d 47c0 4041 2bc0 fc36 abbf e933 27bf
000002e0: ce87 c5bf 0a0c 5bbf 1a34 a4bf 908d b5bf
000002f0: e942 c93e 2c6b a7be 4d78 00c0 3493 ddbe
00000300: 0b00 1cbf 0f97 83bf 057b 4ebf abb1 cdbf
00000310: c067 dbbe c121 e0bf 1c26 83bf 7757 bfbf
00000320: 4223 e83d a6f1 c6bf 6032 8cbf 5747 e0bf
00000330: 1392 9bbe 67eb 7abf 7b8f 93bd 320e cdbf
00000340: 3fba 58bf 9cb3 d1be 5bd0 8dbe 3d84 e1bf
00000350: a680 4cbe dc19 f2bf fd47 63be 65b9 c1bf
00000360: a7c4 04c0 8b1e b93f 081f 003e 118c 90bf
00000370: 951b 993e 7e16 4a3d 3d22 583f 7ad6 abbf
00000380: 4e8d 0b3d ddb8 eabf 6d08 02c0 5d8d b0bf
00000390: 1bfd c8bf 4ac1 41bf fded 83c0 2244 86bf
000003a0: 1090 4bbd 6491 bebf 9e1e 13c0 a1a7 98bf
000003b0: 1409 de3e f3cb 0bbf 3698 c3bf 301c 84bd
000003c0: 17b2 c5bf 05c6 ccbe a501 e4bf 1765 79bf
000003d0: 6a23 a6bf cbfe d5bf 04b3 7abf 63ad 0abf
000003e0: eb5e bcbf c810 d0bf a249 3ebf fdff a8bf
000003f0: 4cf9 e7bf dc86 b03e f3ab 0ec0 fb7a fabf

model.2.bias f4 [27]
-0.25792128 0.07644734 0.118985824 0.1786942 -0.018793033 -0.26292184 0.012825085 0.041435525
0.083538085 0.039634924 0.049486894 0.081342086 0.040597044 0.09109473 -0.14735946 -0.052850258
-0.063541785 -0.23203592 -0.012748581 0.13300797 0.15848552 -0.11544488 0.009642873 -0.10303963
-0.1357419 -0.053785823 0.03862192
00000000: 420e 84be 6c90 9c3d d7ae f33d 9dfb 363e
00000010: d9f3 99bc b19d 86be 4e20 523c 4cb8 293d
00000020: 0416 ab3d 3b58 223d c5b2 4a3d ae96 a63d
00000030: 1649 263d e08f ba3d 66e5 16be 8379 58bd
00000040: 3222 82bd d39a 6dbe 6ddf 50bc 3e33 083e
00000050: 074a 223e 5e6e ecbd 24fd 1d3c 7106 d3bd
00000060: edff 0abe 864e 5cbd 0532 1e3d
